filenamebeethoven_ode_to_joy.mid.npy
filenamebach_air.mid.npy
in_pitch_indices [0, 2, 5, 12, 13, 15]
config_sequences[array([0, 0, 0, ..., 0, 0, 0])]
seq[0 0 0 ... 0 0 0]
len 11
n_points [array([0, 0, 0, ..., 0, 0, 0])]
seq[0 0 0 ... 0 0 0]
len 11
n_points [array([0, 0, 0, ..., 0, 0, 0])]
_________________________________________________________________
Layer (type)                 Output Shape              Param #   
=================================================================
lstm_1 (LSTM)                (None, 10, 128)           98816     
_________________________________________________________________
dropout_1 (Dropout)          (None, 10, 128)           0         
_________________________________________________________________
lstm_2 (LSTM)                (None, 128)               131584    
_________________________________________________________________
dropout_2 (Dropout)          (None, 128)               0         
_________________________________________________________________
dense_1 (Dense)              (None, 64)                8256      
_________________________________________________________________
activation_1 (Activation)    (None, 64)                0         
=================================================================
Total params: 238,656
Trainable params: 238,656
Non-trainable params: 0
_________________________________________________________________
Training the model...
Attempting to load previous weights...
seq[0 0 0 ... 0 0 0]
len 11
Number of training points: 2038
Using 203.8 validation batches
Iteration 0
Epoch 1/1

 1/64 [..............................] - ETA: 1:16 - loss: 0.5117
…
