…
): 123, (1, 1, 1, 1, 1, 0, 0): 124, (1, 1, 1, 1, 1, 0, 1): 125, (1, 1, 1, 1, 1, 1, 0): 126, (1, 1, 1, 1, 1, 1, 1): 127}
the len of config_sequences are 1
config_sequences[array([ 0,  0,  0, ...,  0,  0, 64])]
seq[ 0  0  0 ...  0  0 64]
len 13
n_points [array([ 0,  0,  0, ...,  0,  0, 64])]
seq[ 0  0  0 ...  0  0 64]
len 13
n_points [array([ 0,  0,  0, ...,  0,  0, 64])]
_________________________________________________________________
Layer (type)                 Output Shape              Param #   
=================================================================
lstm_1 (LSTM)                (None, 12, 128)           131584    
_________________________________________________________________
dropout_1 (Dropout)          (None, 12, 128)           0         
_________________________________________________________________
lstm_2 (LSTM)                (None, 128)               131584    
_________________________________________________________________
dropout_2 (Dropout)          (None, 128)               0         
_________________________________________________________________
dense_1 (Dense)              (None, 128)               16512     
_________________________________________________________________
activation_1 (Activation)    (None, 128)               0         
=================================================================
Total params: 279,680
Trainable params: 279,680
Non-trainable params: 0
_________________________________________________________________
Training the model...
seq[ 0  0  0 ...  0  0 64]
len 13
Number of training points: 3060
Using 306.0 validation batches
Iteration 0
Epoch 1/1

 1/64 [..............................] - ETA: 1:22 - loss: 4.8461
…
